webgl_example_simd_webgpu/StreamingAssets/OpenCVForUnityExamples/tracking/object_tracking_vittrack_2023sep.onnx (onnx, 714726 bytes, 77 tensors)

pos_embed_z f4 [1, 64, 48]
000000 c5 7a 32 3f 27 79 bd bf a0 55 85 bf 45 09 75 3e
       0.6971858 -1.4802598 -1.0416756 0.23929317
000010 77 62 b6 3f 96 98 dd be b5 0c 9f 3d 86 ca 8d 3f
       1.4248799 -0.43280476 0.077660955 1.107743
000020 26 60 c6 be 59 07 f3 3e 58 f7 df 3d 35 04 89 3f
       -0.3874523 0.47466543 0.10935849 1.0704409
000030 49 21 e9 3d 52 f1 60 bf d0 b1 72 bf b7 bf 14 bf
       0.11383302 -0.87868226 -0.9480257 -0.58105034
000040 d2 2c 05 3c e4 df 56 bf b8 51 81 3e 37 fa 97 bf
       0.008128362 -0.8393538 0.2525766 -1.1873235
000050 23 57 f8 3b 33 63 84 bf 3c 22 96 3e dc 8e c7 bc
       0.007578747 -1.0342773 0.29322994 -0.024360113
000060 46 ce 08 be 39 bc 24 3d f7 e7 88 bd 24 ca 4f bd
       -0.13359937 0.040218566 -0.06684869 -0.050729886
000070 bb 10 b3 3f 46 06 ae bf 68 8c 9b 3e 46 94 fb be
       1.3989481 -1.3595665 0.3038056 -0.4913656
000080 0a b9 19 3f 3c 60 21 be d1 e8 b8 be e8 64 22 3f
       0.6004797 -0.15759367 -0.36115125 0.6343522
000090 87 f9 aa bd 77 05 e2 3e da de 9f bf 60 a2 4d bf
       -0.08348375 0.44144794 -1.2489884 -0.8032589
0000a0 e0 86 1b 3f e5 04 27 3f 94 64 e5 bd 8f d1 0a be
       0.6075268 0.65241843 -0.112008244 -0.13556503
0000b0 e2 31 57 3f 6b bd 33 3f 36 92 1d 3f 50 23 8d be
       0.8406049 0.70210904 0.61551225 -0.27566004
0000c0 a1 8e 69 3f 7d e6 1c bf e8 ed 08 bf 60 a6 91 bd
       0.9123326 -0.612892 -0.53488016 -0.07111812
0000d0 23 a4 58 3f 7c 82 df be dc 0a 82 3f 56 9c 83 bd
       0.8462545 -0.4365424 1.0159564 -0.06426303
0000e0 1c 16 b8 3e cc a0 08 be be 75 d2 bc fb 6a 23 3f
       0.35954368 -0.13342589 -0.02569091 0.63835114
0000f0 e8 a3 29 bf ab 19 6a 3e 51 16 1e bf 9c ea f0 bd
       -0.66265726 0.22861354 -0.617528 -0.11763498
000100 65 8b 0e be 9d 24 dd 3e 3a db ea 3e 33 c8 a3 3e
       -0.13920362 0.43191996 0.45870382 0.31988677
000110 34 d9 39 be 6b 8c 2a bf 1b aa ed 3e 33 72 98 bf
       -0.18149263 -0.6662051 0.46418843 -1.1909851
000120 ed 30 fc 3e 19 1e cc be 93 a9 56 3e 53 f5 f1 be
       0.49256077 -0.39866713 0.20963125 -0.4725748
000130 c0 fc 6e 3e db 35 9d 3d 20 83 8c 3b ce 92 8e be
       0.23338604 0.07676288 0.0042880923 -0.27846378
000140 2d bb 9a 3f d4 f3 8e 3e 62 65 2c 3f a8 df ed 3d
       1.2088372 0.279204 0.673422 0.11614925
000150 dc 8f f8 bb a2 9f da 3e 68 ba 99 3e 9f 3d eb be
       -0.0075855087 0.42699915 0.3002503 -0.4594545
000160 5f e0 34 3f bd c2 ea be 23 8c aa bf e9 a6 e3 be
       0.70654863 -0.458517 -1.3324016 -0.4446328
000170 4d 4e 01 3f c4 e3 66 bf 8b 22 d3 bd ed b1 03 3e
       0.505101 -0.9019129 -0.10309323 0.12860842
000180 fc 57 4d 3f 5e 33 06 bf 81 68 fd be 08 95 67 bd
       0.8021238 -0.5242213 -0.49493793 -0.05653861
000190 fe 01 35 3f af ea a8 be e1 25 88 3f 8e 05 4d 3e
       0.70706165 -0.3299155 1.063656 0.2002165
0001a0 4f 25 7c 3e 9b 2f bf be 90 aa f0 3d b7 d9 40 3f
       0.24623607 -0.37341008 0.11751282 0.75332206
0001b0 8c fe 3b bf 6c 5b e6 3e 21 16 34 bf 0d 61 62 be
       -0.7343528 0.44991624 -0.70346266 -0.22107334
0001c0 c5 84 b4 3d b8 4f d2 3e ec df 19 3f 2b 24 2a 3f
       0.08814386 0.41076446 0.601073 0.6646144
0001d0 62 15 ca be 47 b2 16 bf 17 12 c5 3e b2 80 94 bf
       -0.3946944 -0.5886578 0.38490364 -1.1601775
0001e0 31 f1 bf 3e 01 3b 12 bf b0 a0 08 3e 43 50 1b be
       0.37488702 -0.5712128 0.13342547 -0.15167336
0001f0 10 ce 9a 3d c3 b1 a1 be b3 26 18 3f 55 1a 36 be
       0.075588346 -0.31580934 0.5943405 -0.17783482
000200 ad f4 3b 3f d8 58 2a 3e 75 31 f9 3e 8d 2c 81 be
       0.7342022 0.16635454 0.48670545 -0.25229302
000210 bc 8b 17 bd 9c db ab 3d 76 c5 2b 3d 4b 17 f5 be
       -0.036998495 0.083914965 0.04193636 -0.47869334
000220 45 12 50 3f 8c 7b ad be f4 ef 92 bf f6 fa 99 be
       0.8127788 -0.3388332 -1.1479478 -0.3007428
000230 0b 4a 0f 3f 94 6c 28 bf 0c ff 5b 3c 00 b2 25 3e
       0.55972356 -0.6579068 0.013427507 0.16181183
000240 58 9f 44 3e 5d 8e ca be d9 00 d9 be d5 a2 9f 3d
       0.1920141 -0.3956174 -0.4238346 0.077947296
000250 f8 95 d3 3e 83 65 14 bf 2e 11 b3 3f 76 5d 0a 3f
       0.41325355 -0.57967395 1.3989618 0.5404886
000260 01 70 ca 3e ef ad 4f be b2 bd 5a be 78 ec 14 3f
       0.39538577 -0.20281194 -0.21361426 0.5817332
000270 d5 c4 1d bf aa 4f b2 3e 52 55 4e bf 83 15 bd bd
       -0.61628467 0.34826404 -0.8059894 -0.09232619
000280 0a bc 41 3e 76 a4 bf 3e 68 fc 5d 3f af e7 00 3f
       0.18919387 0.3743016 0.86713266 0.5035352
000290 cc c0 c4 be b1 11 94 bd 11 c5 0f 3f 65 2e ba bf
       -0.38428342 -0.07229937 0.56160074 -1.4545408
0002a0 80 9a 36 3f 82 eb 00 bf f6 af 63 3e b0 83 15 be
       0.713295 -0.50359356 0.22235093 -0.14601016
0002b0 6d 57 97 be f7 63 86 3c b3 6a 3a 3f 7f 73 d5 3d
       -0.29558888 0.016405089 0.7281906 0.1042242
0002c0 e5 01 85 3f c0 d9 74 be 0a a3 20 bd a4 df c9 be
       1.0391203 -0.2391119 -0.039217986 -0.39428437
0002d0 ea 83 79 be fd 82 11 3e 06 f1 78 3e 9f 7c 28 bf
       -0.24366727 0.14210124 0.24310693 -0.65815157
0002e0 60 b2 af 3e 34 f9 b0 be 86 f6 64 bf d1 a4 27 be
       0.34315777 -0.34565127 -0.89438665 -0.16371466
0002f0 ea 4a e4 3e aa 50 c0 be b8 22 a3 be cf a0 55 3e
       0.44588405 -0.37561542 -0.31862426 0.20862125
000300 ca a7 e1 3e 98 34 92 be 92 27 2b bf dc 02 04 3e
       0.44073325 -0.2855575 -0.66857255 0.12891716
000310 25 8c ca 3e eb e5 23 be 06 c3 d6 3f a1 43 19 3f
       0.39560047 -0.16005675 1.6778266 0.5986882
000320 4e 7f 35 3f d0 34 08 3b c0 92 d8 be d4 a9 de 3e
       0.70897377 0.0020783432 -0.4229946 0.43488944
000330 dd 88 4c bf 7d be 95 3e f0 90 a8 be d5 38 29 be
       -0.79896337 0.29246894 -0.3292308 -0.16525586
000340 12 d8 16 3e cf 94 28 3d 22 a3 64 3f 1f 3f f5 3e
       0.14730862 0.04115754 0.8931142 0.4789972
000350 45 18 32 bf d6 10 b9 be 9c 8c 42 3f 4d 6d bc bf
       -0.6956828 -0.36145657 0.759958 -1.4720856
000360 36 b6 2f 3f d5 53 ab be 1e df 91 3e 8e af 0d bf
       0.68637407 -0.33462396 0.28490537 -0.55346
000370 ad d1 dd be 7b e3 8c 3e c8 fb 1e 3f c7 48 d3 3e
       -0.43324032 0.27517304 0.6210294 0.41266462
000380 f9 1e 5e 3f 54 9f bd be df da a0 be db 5a a0 be
       0.8676601 -0.3703562 -0.31416985 -0.31319317
000390 ba 7e b4 be 79 6d 84 3e 11 9a d4 3e 4c ba 3d bf
       -0.35252935 0.2586477 0.41523793 -0.7411239
0003a0 f1 35 e9 3e 2f 37 43 bf b0 4c 40 bf af d8 99 be
       0.45548967 -0.7625608 -0.75117016 -0.3004813
0003b0 b1 c3 e7 3e 26 2b 0f be 81 92 93 be f1 af 92 bc
       0.45266488 -0.13981304 -0.2882271 -0.017906161
0003c0 e0 50 af 3e 27 d3 95 be 75 60 fc be fb 9e c2 3d
       0.3424139 -0.2926266 -0.4929234 0.09502979
0003d0 01 c5 d7 3e f7 24 0c bf 27 49 b0 3f 6d bb 07 3f
       0.4214249 -0.54743904 1.3772324 0.53020364
0003e0 1c 1e e6 3e be a9 6a be 57 66 d8 bd 5a 22 22 3f
       0.44944847 -0.22916314 -0.10566395 0.63333666
0003f0 55 85 08 bf d4 17 9f 3e b0 c4 30 bf f4 d5 dc bc
       -0.5332845 0.31072867 -0.6905012 -0.02695749

pos_embed_x f4 [1, 256, 48]
000000 3f d1 13 bf a2 5f da bf 86 49 b9 be 9e bc a3 3e
       -0.5774116 -1.7060435 -0.36188906 0.3197984
000010 89 ef 78 3f 9c 43 be 3d c7 df a1 3e f2 93 b3 3f
       0.972405 0.09290239 0.3161604 1.4029524
000020 23 9f ec be 27 f6 23 3f 04 65 7f bf f9 8b 15 3f
       -0.46215162 0.64047474 -0.9976351 0.58416706
000030 8c 27 88 3e 91 63 91 bf 10 68 47 3e 3b 10 58 3e
       0.26592672 -1.135851 0.1947329 0.21099941
000040 5d f8 8b 3e c1 af 8f bf 16 34 03 3d 8e 72 26 bf
       0.27337924 -1.1225511 0.032032095 -0.65018547
000050 14 8f 22 3e f4 ae 0d bf 2a 10 16 3f 17 e5 4a 3f
       0.15874892 -0.5534508 0.58618414 0.79255813
000060 02 99 e4 3e e4 c0 e5 be 85 8e a4 bc 95 02 15 3f
       0.44647986 -0.44873726 -0.02008749 0.58207065
000070 91 60 82 3f 6c 9b 96 bf 04 2b e8 3e 07 e0 8a be
       1.018572 -1.1766181 0.45345318 -0.27124044
000080 bb bf a1 3d 45 5c 28 bf a3 3a a2 3c 8c 19 9d 3e
       0.07897898 -0.6576579 0.01980335 0.30683553
000090 a8 7f 29 3e 1e 04 4f 3d fb 38 05 c0 22 51 72 bf
       0.16552603 0.050541036 -2.0816028 -0.9465505
0000a0 10 59 e6 3e 98 93 1c be fa 5a 08 bf f5 86 df bd
       0.44989824 -0.15290678 -0.5326382 -0.10914413
0000b0 77 7a 7c 3d da 45 b6 3f c7 e3 b5 3d 49 9e e8 be
       0.06164023 1.4240067 0.08881336 -0.45433262
0000c0 1b 92 16 3e 7f c1 44 be bf f0 c8 bd 48 1d 14 3e
       0.14704172 -0.19214438 -0.09811544 0.14464295
0000d0 e9 22 74 3e e2 44 1c be ad e5 20 3f 08 33 57 3f
       0.23841442 -0.15260652 0.6285046 0.8406224
0000e0 63 67 9a bd ef cc 6d be c8 e7 9b 3e f4 61 b8 bd
       -0.07539251 -0.23222707 0.30450273 -0.09003058
0000f0 ca dc 45 bf c0 a2 2a 3e b6 fb 32 3e 2d 38 73 bc
       -0.7729002 0.16663647 0.17478833 -0.014844936
000100 fe 85 a5 3e bd 65 62 3f f5 8b a0 be c9 40 a0 bd
       0.3232879 0.8843649 -0.3135678 -0.07824857
000110 19 a7 3e be 78 f1 39 bf cb dc 9d bd 66 7f 48 bf
       -0.1861843 -0.7263408 -0.077081285 -0.78319395
000120 61 c6 ae 3d b0 db 85 bf c2 69 3f be 7b b2 b8 3e
       0.085339315 -1.0457668 -0.18692687 0.3607367
000130 06 02 a1 3d 71 c1 38 3e f2 6e 37 3e 77 3b cd 3d
       0.07861714 0.18042542 0.17913416 0.10021108
000140 34 9e 5c 3f ca f0 76 3f ac d0 2f 3e 2c e5 ef 3e
       0.861789 0.96461165 0.17169446 0.46854532
000150 32 0e 2e 3f 10 e0 e1 be ba 28 8f be 20 ec e3 bd
       0.6799041 -0.4411626 -0.2796076 -0.11129022
000160 0a e6 49 be a9 59 5f bf e6 c1 5d bf 62 ae da 3d
       -0.19716659 -0.87246186 -0.8662399 0.10677792
000170 4d 4d ff be 13 3b 5c bc f1 f7 17 bf cd 63 d7 3e
       -0.49863663 -0.013441819 -0.59362704 0.4206833
000180 1a bb 3b bd 51 58 f6 3c 6c 04 b5 3d c7 89 7d bd
       -0.04583273 0.03007141 0.08838734 -0.061898973
000190 84 43 17 3f a5 ec ba bd 53 fa 00 3f 53 aa 81 3f
       0.59087396 -0.091271676 0.50381964 1.0130104
0001a0 12 ac 2c 3e d6 40 3c be ba 3e 71 3e dd ea c8 be
       0.16862515 -0.18384108 0.23559085 -0.39241686
0001b0 8b d5 d4 bd ee b6 8e 3e d6 ee b3 3d bd cc 61 be
       -0.103922926 0.2787394 0.08785789 -0.22050758
0001c0 df 84 8c 3e bb ce 2f 3f 2c cb 26 3e ef 75 8b be
       0.27445123 0.6867482 0.16288441 -0.27238414
0001d0 ad a8 1b bf e9 3f 0e bf 38 e2 13 be e0 56 a3 bf
       -0.60804254 -0.5556627 -0.14441764 -1.2760887
0001e0 c6 10 c9 3d 4d 99 7d bf f4 4d bc be c2 74 0e 3f
       0.098176524 -0.99062043 -0.36778224 0.5564691
0001f0 b7 a4 e3 be e4 3a 1a 3e 36 b3 b2 3e 7a 46 ad 3e
       -0.44461605 0.15061527 0.34902352 0.33842832
000200 40 76 4a 3f 6e bc 41 3f 24 3c a7 be c6 36 c2 3e
       0.79086685 0.75678146 -0.3266307 0.37932414
000210 bd 6f 0a 3f a5 58 06 3c 29 d9 ea be 2b 29 69 3d
       0.5407675 0.008199845 -0.45868805 0.056924026
000220 a1 f0 15 3c da 17 48 bf 0b 2a 77 bf 64 78 0e 3e
       0.009151609 -0.78161395 -0.9654853 0.13913113
000230 15 46 9a be a5 01 a2 bd b6 17 df be 96 bb 35 3e
       -0.30131593 -0.0791047 -0.43572778 0.1774734
000240 30 ba 62 3e 11 4b 02 be d4 38 ee 3c ae dc 45 be
       0.22141337 -0.12723948 0.029079832 -0.19322464
000250 dd d0 08 3f 3f 6d 19 be 37 47 0c 3f 38 1d 4d 3f
       0.534437 -0.1498308 0.54796165 0.8012271
000260 58 07 86 3e f3 52 12 be 0e d1 59 3e 16 2f 2b be
       0.26177478 -0.14289455 0.21271154 -0.1671718
000270 cc 86 f4 bd 86 3d 8d 3e 61 e1 d3 ba 11 f9 44 be
       -0.11939773 0.27586 -0.0016165191 -0.19235636
000280 fd 7c a0 3e 84 58 d4 3e d8 01 48 bd 45 51 c3 be
       0.31345358 0.41473782 -0.048829883 -0.3814794
000290 b5 b9 11 bf 0a e5 ff be da 13 13 3c 56 57 8d bf
       -0.5692399 -0.4997943 0.008976901 -1.1042278
0002a0 6d 77 a6 3e d8 a7 34 bf d4 a9 2d be 78 c8 26 3f
       0.3251299 -0.7056861 -0.16959316 0.6514964
0002b0 84 b7 67 be 86 95 2e 3e 6e e8 f7 3e 1e bb 93 3e
       -0.226286 0.17049226 0.48419517 0.28853697
0002c0 f2 e3 0b 3f b6 47 14 3f a9 71 59 bd 3b 64 ec 3e
       0.5464469 0.5792192 -0.05308691 0.4617022
0002d0 f6 16 06 3f 5a 01 ea 3d a6 ad 29 bf 79 2c 89 3d
       0.52378786 0.11426039 -0.6628059 0.066979356
0002e0 b2 9a 00 be d9 fa 27 bf 38 dc 95 bf 6c af c6 3d
       -0.12559012 -0.6561714 -1.170783 0.09701428
0002f0 f8 fc 8a be 50 87 c4 bc 9c 10 0e bf 9e b0 22 3e
       -0.27146125 -0.023990303 -0.55494094 0.15887687
000300 74 58 ce bd 6e 84 19 be 57 d4 09 bd 05 bb ef bd
       -0.10075465 -0.14991924 -0.03364977 -0.11705593
000310 45 c1 da 3e 67 14 1c be da f8 01 3f 8e a2 3b 3f
       0.42725578 -0.15242158 0.5077034 0.73294914
000320 3c 3a 7d 3e 6b 1a 80 be 38 e1 58 3e f9 a7 73 be
       0.24729246 -0.25020155 0.21179664 -0.23794545
000330 6c 7f 1e be 0c f3 c5 3e ab 2a ab bd 88 22 27 be
       -0.15478295 0.38661993 -0.08357748 -0.16321766
000340 be b7 81 3e 18 06 11 3f cd e1 b6 bd cf 14 c3 be
       0.25335497 0.56649923 -0.08929787 -0.38101813
000350 09 b1 1a bf c1 90 c6 be c2 b6 0a 3e da 4e 85 bf
       -0.60426384 -0.38782313 0.13546279 -1.0414689
000360 20 1d ac 3e 27 15 36 bf 27 d7 ac bd 1f ac 02 3f
       0.3361597 -0.71126026 -0.084394746 0.51043886
000370 74 c8 a2 be 2f 8b 81 3d cf e6 ef 3e 8f 9e 9f 3e
       -0.3179356 0.06325375 0.4685578 0.31175658
000380 f2 8c 28 3f ac 09 01 3f 1d 0c 09 be 5d e1 fb 3e
       0.65840065 0.50405383 -0.13383527 0.49195376
000390 1b 1a 0e 3f 47 af 08 3e e2 08 21 bf 9c b5 6a 3d
       0.55508584 0.13348113 -0.6290418 0.057302102
0003a0 a7 46 47 bd 4d a2 39 bf c1 fa 99 bf d9 c3 ae 3e
       -0.048651364 -0.72513276 -1.2029649 0.34133795
0003b0 ca bd 8d be 61 2c 1b 3e 06 58 1e bf 0b 8d 60 3e
       -0.2768386 0.15153648 -0.61853063 0.21928804
0003c0 d7 4d 17 bc 64 1b f8 3c 53 99 8e be 30 65 82 bd
       -0.009234867 0.030286498 -0.27851352 -0.06366956
0003d0 92 ce e5 3e 45 90 cc bc 37 f4 22 3f 56 85 4c 3f
       0.44884163 -0.024971137 0.6365389 0.79890954
0003e0 bb d8 a5 3e 4e 44 66 bd 91 21 b4 3e 7a 0e ee bd
       0.32391915 -0.056217484 0.3518186 -0.11623855
0003f0 46 85 5d bd a7 21 f8 3d 16 06 bd bd 85 f7 5c 3d
       -0.054082178 0.12115794 -0.092296764 0.05394699

box_head.conv5_ctr.weight f4 [1, 4, 1, 1]
000000 76 f5 2f bf e3 a9 e6 3e 2f 65 fb bf cb eb 44 bf
       -0.6873392 0.45051488 -1.9640254 -0.7692229

box_head.conv5_offset.weight f4 [2, 4, 1, 1]
000000 05 81 28 bf 6a 15 c5 bb 65 9e 24 bb 3f 63 a2 3d
       -0.6582187 -0.0060145156 -0.0025118825 0.07929086
000010 d9 dc f6 3c 87 9c fb 3e d0 e7 e8 be ca 0c 0f 3f
       0.030134605 0.49142858 -0.4548936 0.5587889

box_head.conv5_offset.bias f4 [2]
000000 a8 bd 65 3f c9 19 e7 bd
       0.8974252 -0.11284215

box_head.conv5_size.weight f4 [2, 4, 1, 1]
000000 10 20 04 bf 5b d2 02 be e2 b7 96 3e 77 e0 56 3e
       -0.51611423 -0.12775557 0.29437166 0.20984064
000010 87 c9 97 3e c7 7c 0c bf a2 2c 02 be b8 15 0c 3f
       0.2964594 -0.54877895 -0.12712339 0.5472064

box_head.conv5_size.bias f4 [2]
000000 01 30 50 bd d9 78 a8 be
       -0.05082703 -0.329047

blocks.0.norm1.weight f4 [48]
000000 d4 e3 12 3f 9f 9b 1c 3f ee a0 00 3f ff ab f6 3e
       0.5737889 0.6117496 0.5024556 0.48178098
000010 50 80 12 3f bd 5f fc 3e 2e a1 25 3f 00 4e f7 3e
       0.5722704 0.49291793 0.64699066 0.48301697
000020 7e 02 39 3f 08 e7 d0 3e 11 e5 0e 3f 61 d5 42 3f
       0.7226943 0.40801263 0.5581828 0.7610684
000030 d6 35 3e 3f d2 03 f1 3e df 27 05 3f af af 17 3f
       0.743009 0.47073227 0.52013963 0.59252447
000040 ed 8f 1c 3f 01 bb 09 3f 9d c7 07 3f 3f 98 1a 3f
       0.61157113 0.5380097 0.5303896 0.6038856
000050 b4 c2 0c 3f 5d 66 34 3f 71 1f 2a 3f d2 f6 79 3f
       0.54984593 0.70468694 0.66454226 0.9764224
000060 d6 5a 19 3f 71 8e 3a 3f ad 70 1b 3f 3e 04 01 3f
       0.5990423 0.728736 0.60718805 0.503971
000070 ba 85 06 3f 25 83 1b 3f 70 7e f7 3e 0d 01 00 3f
       0.525478 0.60746986 0.48338652 0.50001603
000080 eb 8a 1f 3f d9 33 30 3f f3 60 dc 3e 92 8a 17 3f
       0.62321347 0.68829113 0.43042716 0.59195817
000090 8a b2 49 3f 41 b2 15 3f 71 cb f7 3e 6b db 10 3f
       0.78788054 0.5847512 0.483974 0.56584805
0000a0 3a 49 23 3f 1e 04 13 3f db 28 5a 3f 4f 59 d7 3e
       0.6378361 0.5742816 0.8521859 0.42060325
0000b0 5b 6b 11 3f bc 41 07 3f a6 4a 17 3f 78 13 1d 3f
       0.56804436 0.5283468 0.5909828 0.6135783

blocks.0.norm1.bias f4 [48]
000000 f4 6b 2a 3e 53 6e 1e 3e 63 c8 d6 bd 40 50 81 bd
       0.16642743 0.15471773 -0.104874395 -0.063141346
000010 10 3a 08 bf 78 be a3 bd e4 5c 52 be 19 83 80 3e
       -0.53213596 -0.079953134 -0.20543247 0.2510002
000020 a0 63 25 3d 4d fe c0 3d 5a ff 4e 3e dc 06 31 3e
       0.040378213 0.09423504 0.20214596 0.17287773
000030 39 a7 a9 bd 56 eb be 3d 09 1c a0 bd 2b 09 bb 3e
       -0.08283848 0.093222305 -0.07817847 0.36530432
000040 c6 2e 88 3e d5 5e 11 3f 41 da 9d be 4d e8 ee 3d
       0.26598185 0.5678533 -0.30830577 0.116654016
000050 4c 80 3a 3d ba 2a 67 be 24 9f 0f bd 81 84 d7 3d
       0.04553251 -0.22574893 -0.035063878 0.1052332
000060 1d ab 78 3e ce dd f7 3d 51 22 e4 3d 1b 2f 1d bc
       0.24284025 0.12102853 0.11139358 -0.00959375
000070 88 80 d2 bd 5c 3d f6 3e 89 d0 00 bf 59 66 87 3e
       -0.10278422 0.48093688 -0.503182 0.26445273
000080 74 46 dd be 2e 85 8d 3d 40 e5 0a bf 4b 73 83 bb
       -0.43217814 0.06910168 -0.5425606 -0.0040115467
000090 b5 78 a0 3e 30 0e ce bd 97 58 8b bb 59 08 9e 3e
       0.31342092 -0.100613 -0.004252504 0.30865744
0000a0 22 09 30 be 76 a4 34 3e c4 cb 2b bd 4b db 82 be
       -0.17190984 0.17640862 -0.041942373 -0.25557932
0000b0 ed 4a 78 bd 90 68 c1 bd 1f f6 3e be c7 42 b3 bd
       -0.06061833 -0.09443772 -0.18648575 -0.08752971

blocks.0.attn.qkv.bias f4 [144]
000000 d6 a6 0a 3e 6e 24 37 3e 5e da e1 be 8d 9a b7 3e
       0.13540205 0.1788499 -0.44111913 0.358601
000010 74 86 f3 bd ae b9 5d 3f d0 ce 0c 3d aa 11 83 be
       -0.11890879 0.8661145 0.03437692 -0.25599414
000020 49 d5 a5 3e 50 4c 10 bf d4 c8 5a 3e 90 4b ab be
       0.32389286 -0.56366444 0.21365672 -0.33456087
000030 08 62 2c be 67 b0 19 3f e2 f4 d3 bd da fd f5 3e
       -0.16834271 0.60034794 -0.10349442 0.48045236
000040 f7 08 05 3e 51 62 02 bf 6e ff dd 3c 73 6e a2 3e
       0.12991701 -0.5093127 0.027099337 0.3172489
000050 37 ab 07 bf c0 33 4b be 42 8d e3 be d8 87 bc be
       -0.5299563 -0.1984396 -0.4444371 -0.3682239
000060 2d 83 fa 3e 8f 2e 31 bc 59 39 7f 3e 66 7b 18 3f
       0.48928204 -0.010814323 0.2492422 0.5956329
000070 fb 4d a5 3d 6b c4 ca 3e 88 e7 e2 be 10 49 52 bf
       0.08071514 0.3960298 -0.4431727 -0.82142735
000080 b2 d3 b2 3e 1e 31 1b bd f7 3a a7 3e fd 02 17 be
       0.34927136 -0.03788864 0.32662174 -0.14747234
000090 c9 0a 1c be 47 c4 0e 3f 56 ca b9 be af ff 4f 3d
       -0.15238489 0.55768245 -0.36287183 0.05078095
0000a0 75 54 19 3f 54 8d c9 3d 7e ff 8d be b5 29 06 3f
       0.59894496 0.09841409 -0.27733988 0.5240739
0000b0 6d f4 8a be 59 63 3c bf 3b 01 3a bd d4 65 e0 be
       -0.27139607 -0.7358909 -0.04541133 -0.4382769
0000c0 03 c2 92 bd a9 f7 05 3e 11 a6 58 be 9d f7 3b 3d
       -0.07165911 0.13082756 -0.211571 0.04589044
0000d0 ac 4b 78 3d c0 fa 91 bd 63 87 00 be 46 ec 1a be
       0.06061904 -0.07127905 -0.12551646 -0.15129194
0000e0 ae dd 18 be 85 eb d1 3d 23 16 26 3e 83 cd 5e 3c
       -0.14928314 0.1025 0.16219382 0.0135988025
0000f0 e2 4b b9 3d b8 b5 10 bd a6 c9 83 3d 04 58 7c be
       0.090476766 -0.03532955 0.06434946 -0.2464295
000100 01 8a 39 3d b4 87 f6 3d 14 e2 b7 3d fd 24 43 be
       0.045297626 0.12037602 0.08978668 -0.19057079
000110 5b 1a 44 3d 4e 34 02 3e 3a 55 f4 bc 77 c9 d8 bd
       0.047876697 0.12715265 -0.029825795 -0.10585301
000120 6b 7f 8d bc 77 5f ef bc 47 f1 57 3c 42 1a b9 bd
       -0.017272672 -0.029220326 0.013180084 -0.090382114
000130 da b4 a5 3e 6d 07 f0 3d 0d 4e a4 bc 81 06 2e 3d
       0.3236454 0.11720166 -0.020056749 0.04248667
000140 ad 2c 24 3d 29 42 80 3c 6a 3b b7 bd 9e bd 7c 3d
       0.04008167 0.015656548 -0.08946879 0.06170427
000150 4d a7 f5 bd 23 ba 1f 3d 73 12 e6 3c ee d4 b7 3c
       -0.11994801 0.038995873 0.02808497 0.0224404
000160 76 53 94 bd c9 56 9d be 5e a3 bc be d0 21 b7 3d
       -0.072424814 -0.30730274 -0.3684339 0.08941996
000170 b1 50 b3 3d 69 88 a4 3b f9 30 37 be 06 61 39 bd
       0.08755625 0.005021144 -0.17889775 -0.045258544
000180 e5 95 84 3d e2 32 05 3c 5a 80 1a bd 57 36 12 3d
       0.064739026 0.008129807 -0.03772006 0.035696354
000190 6b 1d ab 3d 81 70 b8 3d 15 79 86 3a 26 a3 3c bd
       0.083552204 0.090058334 0.0010259474 -0.046054028
0001a0 2d c5 56 3b 2d 44 b6 bd 89 83 99 3d df d7 13 3d
       0.0032771335 -0.08899722 0.074957915 0.036094543
0001b0 66 34 ba bb 5b 43 a7 3d 7a 63 78 bd a8 40 c8 bd
       -0.005682516 0.08167144 -0.060641743 -0.09777957
0001c0 38 e6 0b 3d dd d6 03 3e 59 52 81 bd a9 ad 0c 3d
       0.0341551 0.12874933 -0.06314535 0.034345303
0001d0 0f 64 73 3d 4b e2 20 be 90 cc 91 bd 24 71 92 bd
       0.059421595 -0.15711324 -0.07119095 -0.07150486
0001e0 6f 5e 39 3e 68 6b 8f 3c e1 72 02 3d cc d2 7f bd
       0.1810243 0.01750727 0.03184784 -0.06245689
0001f0 64 5a f4 3d b4 6f 5e bd 30 52 fd bc 04 ce c6 bd
       0.11931303 -0.054305747 -0.03092298 -0.09707263
000200 9c a9 f4 bd 01 2c 2b 3b a0 43 ea 3d b4 80 b0 bd
       -0.11946413 0.0026118758 0.1143868 -0.08618298
000210 e3 eb 38 be fa cd d0 bd 70 66 31 3b 8c 51 5d bd
       -0.18058734 -0.10195537 0.0027069114 -0.054032847
000220 22 d3 ff bd a5 d9 b7 bc d4 8e 21 bd ec 5f 7e bd
       -0.12491442 -0.022442648 -0.039442852 -0.062103197
000230 85 c6 2c be d2 ba 54 bd 62 e0 80 3d 54 dc 76 3c
       -0.16872604 -0.05193598 0.062927976 0.015067179

blocks.0.attn.proj.bias f4 [48]
000000 3b 5a d5 3d af 3e 5b be 9d fc 86 3e 32 8e 50 bd
       0.10417601 -0.2141063 0.26364604 -0.050916858
000010 f4 8d 39 be ce 03 94 3d ca 6b 05 be 14 17 99 bd
       -0.18120557 0.07227288 -0.130294 -0.07475105
000020 34 b2 a5 3d 54 6d 9d bd d5 81 48 3d 70 c8 aa be
       0.0809063 -0.07686868 0.048951942 -0.33356047
000030 51 20 2c 3d eb 97 18 bd 45 d9 b2 bd ca e4 13 be
       0.042023007 -0.037254255 -0.08732847 -0.14442745
000040 40 8c 43 3d 50 b4 6d be f6 df 81 3d 41 7a f4 3d
       0.047741175 -0.23213315 0.06341545 0.119373806
000050 ed 32 ab be e6 8a 50 3e c2 6a 70 3d e8 18 37 be
       -0.3343729 0.20365486 0.058695562 -0.17880595
000060 85 77 46 be d0 39 f1 3c 7f b0 33 3e 9d f5 8b be
       -0.1938153 0.029446512 0.17547797 -0.27335826
000070 f8 cc 21 3d 45 b2 85 bc 7f 81 72 be 36 ca 06 be
       0.039502114 -0.016320357 -0.23682211 -0.13163075
000080 c3 07 6d 3d 1a f6 82 3e fb 20 d0 3e c7 7d 4f be
       0.05786873 0.25578386 0.40650162 -0.20262824
000090 38 9d 6a be f6 8d a8 3c 33 ac 2f be d1 55 29 3e
       -0.22911537 0.020575505 -0.17155533 0.16536643
0000a0 06 53 fc bd fb 1c 23 bd 0c c5 48 3d 25 1d 03 3f
       -0.12320523 -0.03982256 0.049016044 0.51216346
0000b0 f4 36 82 3e 5e e8 9f bc 09 cb 5a bd 9a fa 5b 3e
       0.2543255 -0.019519981 -0.053416286 0.21482316

blocks.0.norm2.weight f4 [48]
000000 51 ca 2e 3f 1d d9 29 3f e7 e0 13 3f e2 07 2b 3f
       0.6827746 0.66346914 0.5776505 0.66808903
000010 dc 95 29 3f 05 4c f9 3e 0e 79 3f 3f e6 23 08 3f
       0.6624429 0.4869081 0.7479409 0.53179777
000020 2f 3d 55 3f a6 16 0e 3f fd 43 0d 3f 8a bb 11 3f
       0.83296484 0.5550331 0.55181867 0.56926787
000030 be db 3f 3f ac f7 05 3f 9d e9 30 3f 13 4f 15 3f
       0.74944675 0.5233104 0.69106466 0.5832378
000040 d5 0d 43 3f 31 22 0c 3f 2f 35 32 3f 97 a8 3b 3f
       0.7619298 0.5473967 0.696124 0.7330412
000050 65 5b 2d 3f d6 77 39 3f e3 f7 30 3f f2 07 50 3f
       0.6771758 0.7244848 0.69128245 0.81262124
000060 26 f2 2f 3f a2 04 1f 3f d0 39 18 3f 8a 50 15 3f
       0.68728864 0.62116444 0.59463215 0.5832602
000070 e0 d0 21 3f 76 e6 2b 3f fe e6 21 3f d2 f1 0c 3f
       0.6320934 0.6714853 0.6324309 0.5505649
000080 55 76 2c 3f 22 50 3d 3f d4 0d 0d 3f 0f 66 05 3f
       0.6736806 0.739504 0.55099225 0.52108854
000090 83 10 75 3f d1 aa 10 3f ad 17 23 3f a3 65 25 3f
       0.9572832 0.56510645 0.63708 0.6460821
0000a0 b9 82 39 3f 42 fc 30 3f 20 0f 49 3f 8e 42 f6 3e
       0.7246509 0.69134915 0.78538704 0.48097652
0000b0 a6 e8 0d 3f 4f f6 20 3f 37 91 27 3f d7 19 0e 3f
       0.5543312 0.6287584 0.65455955 0.5550818

blocks.0.norm2.bias f4 [48]
000000 69 57 99 3d c5 cb 08 3e ae 89 ea bd 2d be b3 3a
       0.07487375 0.13358982 -0.114520416 0.0013713293
000010 bd f3 13 bf 90 85 0c bd 87 bf 9b bd 21 0f 58 3e
       -0.5779379 -0.034307063 -0.0760489 0.21099521
000020 d9 8a 2d 3c 03 c5 07 3e 61 b6 a1 3e 45 ae ca 3d
       0.010592186 0.13258748 0.31584457 0.098965205
000030 0f 36 37 be 75 80 44 3e 59 9e ae bd 7b 9a f4 3e
       -0.17891715 0.19189627 -0.08526296 0.4777411
000040 93 42 9b 3e 96 2e 13 3f 75 4d d7 be 58 13 eb 3d
       0.3032423 0.5749296 -0.42051283 0.11478299
000050 93 df 10 3e d4 d6 18 be 0e be 1c bd 35 9f 31 3d
       0.14147787 -0.149257 -0.038267188 0.043364722
000060 bc 95 ba 3e d7 6b f3 3d 48 d6 14 3e c6 02 fe 3c
       0.36442363 0.11885803 0.14534867 0.031007182
000070 cb eb 24 3d 79 36 d0 3e cc bc 1d bf 6a 55 69 3e
       0.040263932 0.4066656 -0.61616206 0.22786489
000080 06 18 be be 10 ae 6c bd fa d6 f8 be 9d ba af 3d
       -0.37127703 -0.057783186 -0.48601514 0.085805155
000090 4b 8f c3 3d 53 e0 0f be 03 39 42 bc 01 4f c7 3e
       0.09548815 -0.14050417 -0.011854413 0.38927463
0000a0 8e 2f be bd 9b f7 d6 3d fb 45 6f bc 6c e7 79 be
       -0.09286414 0.10496446 -0.014604087 -0.24404687
0000b0 10 9d 94 bd e2 cf ae bd 35 fc 7b be b5 fa 2a bd
       -0.0725652 -0.08535744 -0.24607928 -0.041743

blocks.0.mlp.fc1.bias f4 [192]
000000 fc 82 3b be 38 a1 f7 bd 80 1a 5a bd eb 17 6b be
       -0.18311685 -0.12091297 -0.05324793 -0.22958343
000010 b6 1b 3d be 6a e1 96 be 00 53 c3 be 93 3a 2b be
       -0.18467602 -0.29468852 -0.3814926 -0.16721563
000020 e6 1c eb be c8 51 63 bb c4 dc 96 be 37 ef 0b be
       -0.45920485 -0.0034686197 -0.29465306 -0.13665472
000030 6c 62 61 bd 8c 06 a5 be 0e 6e ac 3c 22 d2 d5 be
       -0.055025503 -0.32231557 0.021048572 -0.4176188
000040 b0 fb 9a bd 71 a7 c9 3d b2 4d c2 bd 0e f8 b5 be
       -0.07567537 0.0984639 -0.094874755 -0.35540813
000050 7f 9a b7 be 0f 75 d5 be 20 0d 04 bf b0 6b 88 be
       -0.3586006 -0.4169087 -0.5158253 -0.2664466
000060 33 b7 51 be f9 58 af bd c3 be 1b be e7 8e 46 bd
       -0.20480041 -0.08561892 -0.15209489 -0.048476126
000070 19 aa 83 3d f2 4f 34 bd f4 b5 40 3d a6 1c 3c be
       0.06428928 -0.044021554 0.047048524 -0.18370304
000080 52 a9 80 bd 4a 10 90 bd 33 62 83 be 98 dc cf be
       -0.06282295 -0.07034357 -0.25660858 -0.40597987
000090 5e a4 91 be c6 fc 4e be 32 4e 70 be 78 ff 5c be
       -0.28445715 -0.20213613 -0.23467329 -0.21581829
0000a0 cd bb f0 bd a8 26 e1 bd a7 c9 95 bb 4f 5f 0f be
       -0.1175457 -0.10993701 -0.004571158 -0.14001201
0000b0 5b c6 79 be 6c cf 0a be be 9c 6d be 87 bc 28 be
       -0.24392073 -0.13555688 -0.23204324 -0.16478167
0000c0 8c 33 9a bd ca 03 ab be 88 e1 8b be 8a e2 dc bd
       -0.07529363 -0.33401328 -0.27320504 -0.107853964
0000d0 30 51 98 bd cf 70 91 be 20 4c a4 be f7 84 3b be
       -0.0743736 -0.2840638 -0.3208933 -0.18312441
0000e0 2c 7d 77 be 1d 85 f4 be 74 d4 ee bd 2e 9b bf bd
       -0.24168843 -0.47757807 -0.11661616 -0.0935577
0000f0 16 17 55 3e a0 dc ae be c3 29 b7 be a9 56 3f be
       0.20809588 -0.341527 -0.3577405 -0.18685402
000100 80 db 59 bd 1b f1 05 be 86 b0 9b bd 4a 77 4b be
       -0.053187847 -0.13080256 -0.076020285 -0.19869724
000110 ca b3 a1 ba 3f 55 bb bd 86 8b f0 bd 30 84 f5 3a
       -0.0012336907 -0.09147119 -0.11745362 0.0018731412
000120 d7 07 52 bd 0f 04 72 be 9c 08 03 3d a9 20 0b be
       -0.051277008 -0.2363436 0.031990632 -0.13586678
000130 56 a8 97 3d e4 dd 63 be 34 b4 89 bd f6 c6 50 be
       0.074051544 -0.22252613 -0.06723824 -0.20388398
000140 8c 24 a6 be 83 6a 9d bd fb 1e 6c be c5 15 31 be
       -0.32449758 -0.07686331 -0.23058693 -0.1729346
000150 49 fc a8 bd 37 a9 68 be 99 2a 5b be 7d 96 b1 bc
       -0.082512446 -0.227208 -0.21402968 -0.021678204
000160 7d a6 8e be 36 2f a8 be 76 f4 0e 3d c1 61 11 be
       -0.27861395 -0.3284852 0.034901105 -0.14197446
000170 e6 2e 9b bd 29 b0 f0 bd a7 bd c2 3d f6 f9 43 bd
       -0.075773045 -0.1175235 0.095088296 -0.047845803
000180 e6 2c 4a be e3 ff 96 be 3a 78 76 be ac c0 8d be
       -0.1974369 -0.294921 -0.240693 -0.2768606
000190 26 34 e6 bd f3 b2 20 be 10 f9 ac be e7 cc a5 be
       -0.11240415 -0.15693264 -0.3378377 -0.3238289
0001a0 b7 34 e4 3d 45 cd 59 be 34 08 bf bd 47 56 4d be
       0.11142867 -0.2126971 -0.093277365 -0.20052443
0001b0 67 c6 04 be 14 8a 1b be bf 98 24 bd f2 20 a3 be
       -0.1296631 -0.15189391 -0.040184733 -0.31861073
0001c0 e3 e9 9f be 99 5d ba 3d 62 15 04 be 13 f5 2a be
       -0.3123313 0.090998836 -0.12898782 -0.16695051
0001d0 50 87 67 be 4b 22 80 be 26 38 04 be 43 ab c2 be
       -0.22610211 -0.25026163 -0.12912044 -0.38021287
0001e0 c6 d5 aa bd a2 ac 62 be 1d de 4e be bc 0d 13 3c
       -0.08341555 -0.22136167 -0.20201917 0.0089754425
0001f0 66 67 df 3b da 4d 45 be 56 46 89 be a0 a3 e2 be
       0.006817746 -0.1926798 -0.26811475 -0.4426546
000200 56 b2 06 be ce 6d a8 be 02 5b 43 be 89 90 aa be
       -0.13153967 -0.32896274 -0.19077685 -0.33313397
000210 8e 98 6a be 98 f2 42 be 1a 8d f5 3d ea 30 15 be
       -0.22909757 -0.19037855 0.119898036 -0.1456944
000220 8c a7 d8 be 17 47 1b be f0 09 bd be ec 50 85 be
       -0.42315328 -0.15163837 -0.36921644 -0.260383
000230 54 80 71 3d ad 7d 1a bf 1a eb 9d be 5c 37 c5 be
       0.058960274 -0.60348016 -0.3084343 -0.38518798
000240 e8 49 89 3d 20 6e 6b be 1e 83 99 bd 48 5e 12 be
       0.067035496 -0.22991228 -0.07495712 -0.14293778
000250 cf 16 4d be a8 e7 9d 3d dc 78 28 be 0d 4d fc bd
       -0.20028232 0.077102005 -0.16452354 -0.12319384
000260 82 60 a1 3e df e2 33 be e0 17 60 be 81 d9 13 3d
       0.31518942 -0.17567013 -0.21884108 0.0360961
000270 9a 80 ad be 21 8c d7 bc 0c 7e 6e 3d be b9 c0 be
       -0.33887178 -0.026311936 0.058225676 -0.3764171
000280 05 6f 74 be e2 87 c0 bd dc 4a 81 be 88 30 c5 be
       -0.23870476 -0.094009176 -0.25252426 -0.3851359
000290 2c 69 a8 bd 03 ac f8 bd 63 f8 98 be 73 91 03 be
       -0.08223185 -0.12142184 -0.29877004 -0.12848453
0002a0 89 b8 4b bc 7e b5 89 bd 6a 93 33 be 81 eb bb be
       -0.012434133 -0.0672407 -0.17536703 -0.36703113
0002b0 a4 bf 51 3e a8 92 01 bf e1 05 a7 be 3a c8 a8 bd
       0.20483261 -0.50614405 -0.32621673 -0.08241315
0002c0 cb 94 1a be 82 9d b5 bd dc 18 b9 be 00 e9 8d be
       -0.15095823 -0.08867933 -0.3615178 -0.27716827
0002d0 57 88 60 be f9 25 d7 be 76 91 56 be 78 1a 09 bd
       -0.2192701 -0.42021158 -0.20953926 -0.03347251
0002e0 2b 28 29 be df f3 55 bd 9f e2 ca be 65 82 0d be
       -0.16519229 -0.052234527 -0.39626023 -0.13819273
0002f0 49 08 41 be bd a3 75 3d ef 90 b8 be 3f 55 14 3b
       -0.18850817 0.059970606 -0.36048076 0.0022633818

blocks.0.mlp.fc2.bias f4 [48]
000000 b3 9f 07 3d 86 77 5f 3d c7 62 3e bc 74 27 a7 bc
       0.033111285 0.054557346 -0.01162023 -0.020404555
000010 d6 88 2c bd f4 e7 b1 3d 39 a7 5b 3e ee 4c 3f 3e
       -0.042122684 0.0868682 0.21450509 0.1868169
000020 e4 54 00 be 43 86 b0 bd c5 1e 89 3d 03 07 d8 3e
       -0.12532383 -0.086193584 0.06695322 0.4219285
000030 84 16 d5 3d 20 ad 81 3e be 41 f9 bd 78 74 e9 be
       0.10404685 0.25327396 -0.121707425 -0.4559667
000040 99 f7 d6 3d bf 58 9d be 72 01 69 bd 61 78 2c bd
       0.10496444 -0.3073177 -0.056886144 -0.04210699
000050 fd 0e 25 be 4e 62 65 bc f0 d8 3f bd 06 38 5e 3d
       -0.16118999 -0.014000488 -0.046837747 0.054252647
000060 f5 e4 9d 3d 2a 63 e4 3d 85 03 53 3d 58 90 c6 bc
       0.07709686 0.111517265 0.05151703 -0.02423875
000070 fe 24 59 3d 65 9c 7a 3e 20 bf 9b 3e b2 3c 89 be
       0.053013794 0.24473722 0.30419254 -0.2680412
000080 c1 df 9b be a4 10 d9 bc c2 ee 64 3e 62 3e d7 bd
       -0.30444148 -0.026497193 0.22356704 -0.105099455
000090 02 9b 7a bd 12 f1 04 3e 45 f3 b5 bd 2f 31 3f be
       -0.061182983 0.12982586 -0.088842906 -0.18671106
0000a0 74 5b c9 3c bc 23 be 3e e3 f9 6c bd eb ce f1 3e
       0.024579741 0.37136638 -0.057855498 0.47228178
0000b0 89 c2 16 3e 3f ed 73 be 0f 67 02 3b f3 4a b1 be
       0.14722647 -0.23820971 0.0019897853 -0.34627494

blocks.1.norm1.weight f4 [48]
000000 9a 88 34 3f 9c fd 4f 3f 07 f3 38 3f 5c c7 6a 3f
       0.7052094 0.8124635 0.7224583 0.9171045
000010 96 e6 48 3f e0 6f 49 3f 40 7e 4a 3f 03 4e 74 3f
       0.78476846 0.7868633 0.7909889 0.95431536
000020 6e c3 5b 3f b0 9a 5d 3f 75 1f 40 3f d4 2a 55 3f
       0.8584508 0.8656416 0.75048 0.83268476
000030 db 09 70 3f df 4c 5d 3f 77 13 5f 3f f3 19 4c 3f
       0.9376504 0.8644542 0.87139076 0.79727095
000040 3b ff 5b 3f f5 2f 52 3f b3 02 52 3f 47 a8 6d 3f
       0.85936326 0.82104427 0.8203537 0.92834896
000050 e5 2c 4d 3f 4e 53 77 3f b1 e2 6e 3f 0e 62 70 3f
       0.8014663 0.9661149 0.93314654 0.9389962
000060 50 c7 73 3f c4 d9 6f 3f 46 e1 69 3f c2 47 6d 3f
       0.95226 0.9369166 0.91359365 0.9268762
000070 07 90 63 3f ed fb 52 3f 7c c6 45 3f c5 ae 64 3f
       0.88891643 0.8241566 0.7725599 0.8932918
000080 1c 82 49 3f c4 81 54 3f b0 cc 40 3f 0e 1e 4c 3f
       0.78714156 0.83010507 0.7531233 0.7973336
000090 e8 79 6b 3f 42 68 54 3f b6 6f 64 3f 25 e6 45 3f
       0.9198289 0.82971585 0.8923296 0.773043
0000a0 d8 6d 5c 3f 4c 32 3e 3f 2e b8 77 3f 45 5a 06 3f
       0.8610511 0.74295497 0.9676541 0.5248149
0000b0 81 cd 59 3f 42 24 57 3f f2 4d 59 3f 25 9b 65 3f
       0.850792 0.840397 0.8488456 0.89689857

blocks.1.norm1.bias f4 [48]
000000 db 02 38 3e e4 fc a5 3d 05 52 a0 be 7f 3a 89 bd
       0.1796984 0.08104876 -0.31312576 -0.0670061
000010 91 73 43 be 35 a6 6c be 11 1d 4c be 6e 61 8f 3d
       -0.19087054 -0.23110278 -0.19932963 0.07001005
000020 91 7d 5c 3e 14 1d 74 3e c0 eb 5f 3c 82 ee 16 bd
       0.21532275 0.23839217 0.013667047 -0.036848553
000030 a6 14 b7 bd b4 7a fa bd 7b d9 2c 3d 4f 0d 07 3f
       -0.08939485 -0.12230435 0.042199593 0.5275468
000040 13 28 22 3e 5e 5e 13 3f 5c d6 4f be 6f 80 ce 3d
       0.158356 0.5756587 -0.20296615 0.100830905
000050 85 82 06 3f 71 48 46 be b4 c8 47 be 27 49 25 3e
       0.52542907 -0.19363572 -0.19510156 0.16141187
000060 81 1a db 3e 7a cb 77 bc 17 7f 9b bd 99 02 17 3e
       0.42793658 -0.015124196 -0.075926 0.14747085
000070 79 d1 ef bd 2c 0b c2 3e a1 83 bc be 1f dc b9 3e
       -0.117098756 0.37899148 -0.36819175 0.36300752
000080 2b 5e 2d be 1b 86 13 ba c8 2f 0b bf 6a e9 20 3e
       -0.16930453 -0.0005627588 -0.54369783 0.1571404
000090 91 ce 49 3e 47 02 3f be 48 cd 43 3e 2b 90 d9 3d
       0.19707705 -0.18653212 0.19121277 0.10623201
0000a0 99 94 74 bd ea 6d e7 bd 6b 89 1a 3d a8 2d a5 be
       -0.059712026 -0.11300261 0.03772871 -0.32261395
0000b0 70 3a 21 be e8 23 c1 3d 7b 40 1b be 90 b7 bb bd
       -0.15744948 0.09430677 -0.15161316 -0.09165871

blocks.1.attn.qkv.bias f4 [144]
000000 92 ce 95 bd 0a 38 cb be a5 a7 1c bf 07 b9 87 bd
       -0.07314791 -0.39691192 -0.61193305 -0.06627088
000010 41 54 7d be 40 3b b8 be b7 e9 be 3c a9 39 25 bf
       -0.24739172 -0.35982704 0.023304803 -0.6454111
000020 50 f3 a8 3e 54 c1 0e 3e db 74 97 3e ac 1c 3c be
       0.32998133 0.13940936 0.2958134 -0.18370312
000030 19 74 8b 3d 17 9a 8c be f9 66 00 be 29 1f ec bd
       0.06809253 -0.2746131 -0.12539281 -0.11529381
000040 83 2c a8 3d 00 bd 6a be 40 4b 52 3f 57 41 fe 3e
       0.08211615 -0.2292366 0.8214607 0.49659225
000050 45 e6 12 bf 7b 54 1d 3f 68 38 10 be 90 fb 2b be
       -0.57382613 0.6145703 -0.14084017 -0.16795182
000060 8d 98 5f 3d 9d 11 a4 be 94 c9 88 3c c3 b9 8e be
       0.054588843 -0.32044688 0.016697682 -0.278761
000070 00 5a 84 3e 8f 50 67 be 22 e5 d1 be f0 85 a9 3b
       0.25849915 -0.22589324 -0.40995127 0.0051734373
000080 97 93 b0 3d 30 ee 67 3e 76 49 d4 be b0 20 35 3e
       0.086219005 0.22649455 -0.41462296 0.1768825
000090 e9 50 06 be a9 32 30 bf d3 38 21 3e 9a ef 43 3e
       -0.13116802 -0.688273 0.15744333 0.1913437
0000a0 58 f3 2d be 49 28 36 3e 5a f5 b4 3e 07 28 47 3d
       -0.1698736 0.17788805 0.35343438 0.048622157
0000b0 f0 9d 44 3a 04 dc 0c 3e 86 28 07 bf b9 56 2f 3d
       0.0007500341 0.13755804 -0.5279621 0.042807315
0000c0 23 0d c1 bd 7c 47 4b 3e ae 66 30 be f8 81 0e 3e
       -0.09426334 0.19851488 -0.17226669 0.13916767
0000d0 20 50 b5 3e 6c a7 30 be 45 65 7c bc 1b 57 c5 3e
       0.35412693 -0.17251366 -0.015405004 0.3854302
0000e0 a3 29 73 bc 97 54 e0 bd e1 07 d4 be b4 7e 31 3e
       -0.01484147 -0.10953634 -0.4141226 0.1733349
0000f0 21 8c 8f 3e a0 e3 ae 3e 5c 4a 89 3e 3c ff f3 3c
       0.28036597 0.3415804 0.26814544 0.029784791
000100 11 3a ee bd 56 71 55 be 58 f5 15 bf 9a a1 83 bd
       -0.11632169 -0.20844015 -0.5857749 -0.064273074
000110 98 ba bc bd 6c bb 08 bf 8a d9 84 3e 99 ee ce 3e
       -0.092152774 -0.53410983 0.2594722 0.4041641
000120 79 62 46 be b8 89 ad 3e 09 e0 db 3b b7 b8 1d be
       -0.19373502 0.33894134 0.0067100567 -0.15402494
000130 65 17 98 be 33 7a 34 3e 25 c3 af 3e 0b 21 60 3d
       -0.2970535 0.1762474 0.3432857 0.054719012
000140 54 47 95 be c3 4c 83 bd d3 3f e6 3e 28 f9 7d be
       -0.29155982 -0.064111255 0.4497057 -0.24802077
000150 46 95 4b 3e 60 5d 96 bc 47 44 7f be 21 d9 0e bf
       0.19881162 -0.018355072 -0.2492839 -0.5580006
000160 6e 80 c7 be 5e 90 fd 3e 65 5d 59 3e 19 ab 3b bd
       -0.38965172 0.49524206 0.21227033 -0.04581747
000170 3b b0 43 3d 8a 21 e9 3d b3 60 d0 3d de df 89 3d
       0.04777549 0.1138335 0.10174694 0.067321524
000180 6a 91 45 3d 92 2e 8b 3e c6 18 2c 3d 1d 8d 05 be
       0.04823438 0.27183968 0.042015813 -0.13042112
000190 9c a9 ca bd f5 d6 3c 3e 2d a6 01 be 96 fd 2b be
       -0.09895632 0.18441375 -0.12661047 -0.16795954
0001a0 43 7a 17 bd 8b 6c 1d 3e ef 77 81 3d 81 d3 5d 3d
       -0.036981832 0.15373437 0.06321704 0.054156784
0001b0 d8 4f 72 3d 83 fb fa 3d 01 35 d2 bd 0b c4 6e bc
       0.059158176 0.12255003 -0.10264016 -0.0145731075
0001c0 88 a1 c1 3d 91 28 95 3d e3 c5 9c bd 3f da 61 bd
       0.09454638 0.07283128 -0.076549314 -0.055139776
0001d0 e5 3b 9b bd 4f a5 dc bc 4a 72 26 3d 1d 2e 5a be
       -0.07579783 -0.026934294 0.04063634 -0.21306653
0001e0 5e ca c2 3d 90 98 1d be 47 1b 02 3e 83 1a 05 3c
       0.09511255 -0.15390229 0.12705718 0.008123997
0001f0 85 e6 d5 3b bb 8b 90 3d ac ac 3c 3c a5 15 1d 3e
       0.006527724 0.070579015 0.011515778 0.15340288
000200 16 df 15 be d0 81 6b be b9 1e 66 bd 39 95 f6 3d
       -0.14635882 -0.22998738 -0.056181643 0.12040181
000210 ed a1 66 3e a8 71 01 bd b3 0f 9c 3d 30 1a 06 3d
       0.22522707 -0.03160253 0.07620182 0.032739818
000220 0f 66 5b 3d b3 77 eb bc 82 6c 1a 3e 0f 6d 79 3e
       0.053564128 -0.0287436 0.15080455 0.24358009
000230 e2 cd 7e 3d d6 90 54 be b2 c8 dd 3d 93 e2 d9 bd
       0.062208064 -0.20758376 0.10829295 -0.10638919

blocks.1.attn.proj.bias f4 [48]
000000 74 3e 32 3e 23 17 8c ba 59 28 87 be b1 c0 d8 3d
       0.17406636 -0.0010688048 -0.2639797 0.10583628
000010 19 72 f5 3d da 48 36 be 80 47 45 3e e4 ff 49 3e
       0.11984653 -0.17801228 0.19265556 0.19726521
000020 83 59 7e 3c 5b ae 71 be 4b 79 1b bd be db 90 3d
       0.015524271 -0.23601668 -0.03795747 0.070731625
000030 1d 0f 4b 3d ca af 56 3f 6a a7 de 3d 04 fa 1f be
       0.04957496 0.8386198 0.108717754 -0.15622717
000040 da 76 a6 3e 23 06 b8 bd 58 27 a4 bc e7 8f ae 3e
       0.32512552 -0.089855455 -0.020038292 0.34094164
000050 75 b4 05 be 29 59 ec 3d 1d 19 28 be 41 2e 0e bd
       -0.1305712 0.115404435 -0.1641583 -0.03471208
000060 50 88 ad 3e 67 cb 8e ba 61 f5 0a be ce 3d 28 bf
       0.3389306 -0.0010894359 -0.13570167 -0.65719306
000070 e9 56 44 3d 6c ad cb 3e a5 a1 01 3e 60 b0 68 3e
       0.047934446 0.39780748 0.12659319 0.22723532
000080 90 83 9b 3e 50 ba 31 3d a6 93 24 be 87 c4 67 3e
       0.30373812 0.043390572 -0.16071948 0.22633563
000090 9f 99 eb bd ec 08 d6 bd a7 50 19 bf 30 5b 73 bf
       -0.1150391 -0.104509205 -0.5988869 -0.95061016
0000a0 41 f4 7e 3e a3 e1 bb bd fe 2a 41 3e eb a7 8c 3e
       0.24897863 -0.09173896 0.18864056 0.2747186
0000b0 cd cc c3 3d c5 da 31 be e6 35 39 3c bc d3 40 3e
       0.09560547 -0.1736861 0.011304354 0.1883077

blocks.1.norm2.weight f4 [48]
000000 46 42 39 3f 32 a0 57 3f 86 0a 82 3f 12 fd 91 3f
       0.7236675 0.84228814 1.0159461 1.1405356
000010 f2 2f 3e 3f f6 04 59 3f f0 9b 60 3f df be 67 3f
       0.7429191 0.84773195 0.8773794 0.9052562
000020 da 2a 1a 3f 48 2a 2c 3f 4c da 47 3f 0d 15 45 3f
       0.60221636 0.67252016 0.7806747 0.76985246
000030 c9 2e 9c 3f b2 31 61 3f 08 ff 83 3f a5 24 2c 3f
       1.2201778 0.87966454 1.0312204 0.67243415
000040 a9 d6 64 3f f4 95 03 3f 4c f5 6a 3f c7 a7 95 3f
       0.89390045 0.51400685 0.91780543 1.1691827
000050 d9 c1 2f 3f 5c 58 55 3f 84 15 66 3f 22 96 42 3f
       0.68655163 0.8333795 0.8987658 0.76010334
000060 a5 dc 84 3f 3c fc 89 3f b0 09 2b 3f ab 7f 90 3f
       1.0379835 1.0780101 0.66811657 1.1288961
000070 3e 84 5e 3f 0c 8f 50 3f 1a f8 41 3f b8 ae 66 3f
       0.86920536 0.8146827 0.757692 0.9011035
000080 3d 7b 4e 3f 8f cc 49 3f 5f b3 5b 3f 0e b2 35 3f
       0.80656797 0.78827757 0.85820574 0.70974815
000090 31 4d 83 3f dc 66 2d 3f 54 43 83 3f 99 f2 45 3f
       1.0257932 0.67735076 1.0254922 0.773233
0000a0 a5 82 5f 3f 15 97 45 3f 05 3c 44 3f 11 92 4e 3f
       0.8730872 0.7718366 0.7665408 0.8069163
0000b0 89 b6 75 3f 16 64 8c 3f db e4 71 3f 06 23 4b 3f
       0.9598165 1.0968044 0.9448983 0.79350317

blocks.1.norm2.bias f4 [48]
000000 55 74 d7 3d 63 cf ef 3d b9 bb 16 be 5e 60 16 3e
       0.105202354 0.11709478 -0.14720048 0.14685199
000010 45 73 4a be 79 23 dd be fb c0 62 be 74 6c 4a be
       -0.19770534 -0.43191126 -0.22143929 -0.19767934
000020 35 d8 8b bd 92 f8 a3 3e c3 3d c6 3e dd 2e 98 bc
       -0.068283476 0.32025582 0.38718995 -0.018577034
000030 c0 ab f1 3d e8 de 3a be 9e 22 36 3e 69 3d ce 3e
       0.11800337 -0.18249094 0.17786643 0.40281227
000040 a5 b9 51 3c bc 04 b1 3e 7a 9a 99 3d 32 83 45 3e
       0.012800609 0.34573925 0.07500167 0.19288328
000050 fd 86 34 3e 5e 65 e6 bc 44 ce e3 3d e8 aa a4 3d
       0.17629619 -0.028124508 0.111233264 0.0804041
000060 90 6e 54 3e 5b 1b 8f 3d 49 f5 01 3e 0f 80 88 3d
       0.20745301 0.069876395 0.12691225 0.0666505
000070 85 ac 17 be 1b b9 08 3e 33 05 0a bd 1c 47 fe bc
       -0.14811905 0.13351862 -0.033696365 -0.031039767
000080 bd 1c 94 bc 31 c1 4f 3e 6d e9 c5 be db ef 32 3d
       -0.01808011 0.2028854 -0.38654652 0.043685775
000090 07 73 39 3d c3 d2 83 be 8d 98 c5 3d 8e 0f 86 3b
       0.045275714 -0.25746736 0.096482374 0.0040912097
0000a0 68 4c 03 be 97 0d a9 bc 41 56 cc 3d f9 b4 25 bf
       -0.12822115 -0.020636363 0.09977389 -0.6472927
0000b0 b7 c0 6a be 73 cd c2 bd 95 9f 7c 3e ea 74 08 be
       -0.22925077 -0.095118426 0.2467025 -0.13325849

blocks.1.mlp.fc1.bias f4 [192]
000000 3f cb b4 be 9d ce ef bd 07 9d 68 be 46 5e 0a bd
       -0.35311314 -0.1170933 -0.22716151 -0.033781312
000010 96 df e9 be 07 11 2a be 16 a9 89 be 1c a5 84 be
       -0.45678395 -0.16608058 -0.26886815 -0.25907218
000020 1b 9e aa be c1 96 92 be 42 25 a5 be 83 09 78 be
       -0.3332375 -0.2863064 -0.32254988 -0.24222378
000030 5c 03 43 be 3b e8 54 be d3 20 50 be a3 eb 67 be
       -0.1904425 -0.20791714 -0.20325021 -0.22648482
000040 25 ba e6 bd 9a 8c d4 bd ac 3f 39 be 26 50 58 be
       -0.11265973 -0.1037838 -0.18090695 -0.21124324
000050 79 21 9a be 92 f8 9b be a3 bc 22 be 44 de a6 be
       -0.30103663 -0.30463082 -0.15892272 -0.3259145
000060 80 bb e0 be c2 7b a4 bc e1 a0 b8 bb 7f dc d8 bd
       -0.4389305 -0.020078544 -0.0056344126 -0.10588931
000070 78 f8 20 be f5 18 a7 ba c3 fb 73 be 32 18 b7 bc
       -0.15719783 -0.0012748527 -0.23826508 -0.022350404
000080 40 89 20 bd b3 6e 92 be 28 c4 a0 bd e8 50 cb be
       -0.03919339 -0.28600082 -0.07849914 -0.39710164
000090 30 7f 40 be 0c 2d 69 be ec 62 8f be a8 70 9e 3c
       -0.18798518 -0.2277109 -0.2800516 0.019340828
0000a0 7b b4 77 be f6 44 89 be 52 30 94 be 9c e0 f8 bd
       -0.24189942 -0.26810426 -0.28943115 -0.12152216
0000b0 a4 87 c6 bd 7d 03 86 bd af 94 8b be 13 c4 64 be
       -0.0969384 -0.06543634 -0.27261874 -0.22340421
0000c0 ef 7a 3f be db ad e3 bd d7 12 6c be 4a 71 82 bd
       -0.18699239 -0.11117145 -0.23054062 -0.063692644
0000d0 db da 9d be 59 ca f0 bd 37 7f 54 be ea 6f 31 be
       -0.30831036 -0.11757345 -0.20751654 -0.17327848
0000e0 af f2 09 be 8b 95 9a bd 74 eb 1e bf 54 48 49 be
       -0.13471483 -0.07548054 -0.6207802 -0.19656497
0000f0 d8 6c c4 be 71 c7 d1 be 35 11 79 be af 52 fe be
       -0.3836429 -0.40972474 -0.2432297 -0.49672458
000100 f3 0b a5 be ff c1 19 be 5c b0 68 be c6 13 11 3e
       -0.3223568 -0.1501541 -0.22723526 0.14167699
000110 f2 7d a7 be eb 4a bc be bc 58 28 3c 98 4b 1a be
       -0.32713276 -0.36775908 0.010275062 -0.15067899
000120 7a 05 71 be 39 65 b0 be 2e 61 9b be a1 81 83 bc
       -0.23537245 -0.34452227 -0.3034758 -0.016053023
000130 49 6f 8e bd fb 72 08 bf 13 aa 87 be b2 fc e2 be
       -0.0695482 -0.53300446 -0.26496944 -0.44333416
000140 e6 20 12 be 90 06 bc bd 36 9f c2 bd dd 61 99 be
       -0.14270362 -0.09180939 -0.09503023 -0.29957476
000150 63 1d 01 be 77 25 ce be c3 96 e1 bd 4f 84 8f be
       -0.12608866 -0.40262958 -0.11015084 -0.2803063
000160 b5 a2 f1 be 49 e7 8c be ee 96 45 be 8a f1 18 be
       -0.47194448 -0.27520207 -0.19295856 -0.1493589
000170 75 84 3d be ab f0 06 be 02 db 37 be 4c 96 a1 be
       -0.1850756 -0.13177745 -0.17954639 -0.3155998
000180 9d ac 97 bd 6c f2 e1 bd d6 90 0f be c2 02 18 be
       -0.0740597 -0.110325664 -0.14020094 -0.14844802
000190 a6 be 13 be cf de ea bd 52 c3 11 be 25 40 40 be
       -0.14428195 -0.114682786 -0.14234665 -0.18774469
0001a0 5f d9 cf bd 45 10 88 be a0 12 41 be f8 9b cd bd
       -0.10148882 -0.26574913 -0.18854761 -0.10039514
0001b0 07 2e db bd 26 9f 6d bc cb f2 f9 bd de 2a 3b be
       -0.107021384 -0.014503276 -0.12204512 -0.18278071
0001c0 9c e3 22 be df 7d 23 be 15 fb 87 be c1 c6 a3 be
       -0.15907139 -0.15965985 -0.26558748 -0.31987575
0001d0 f2 55 ff bd 03 0d f9 bd b0 d3 13 be 9d ad 84 be
       -0.12467565 -0.12160685 -0.14436221 -0.25913706
0001e0 8e b8 ae bd 35 12 49 be d3 0a dc bd 45 60 71 be
       -0.08531295 -0.19635852 -0.10744252 -0.2357188
0001f0 c7 dc 80 be eb bd b1 bd ae e1 a6 be 35 d7 a3 bd
       -0.2516844 -0.08678802 -0.32594055 -0.08000032
000200 13 cd 12 be 25 94 9d bd 13 88 23 be 46 3b 07 be
       -0.14336042 -0.07694272 -0.15969877 -0.13206205
000210 da c2 83 be 47 cc 85 bd 9d 3f b4 bc 42 6f 35 be
       -0.25734597 -0.065331034 -0.02200299 -0.17718223
000220 a3 c6 89 be 22 fd 29 be f1 b0 9e be 6b c9 7e bd
       -0.2690936 -0.16600469 -0.3099437 -0.062203806
000230 62 8b 34 be 35 1f 0a be a9 c8 c8 bd 71 2a b9 be
       -0.17631295 -0.13488467 -0.09803898 -0.36165193
000240 86 4d e6 ba e4 52 ae be 62 b4 14 3f 6f 13 d2 be
       -0.0017570711 -0.34047616 0.5808774 -0.41030452
000250 90 bd d7 bd f1 fb 23 be 77 50 62 be fd 47 89 be
       -0.10534203 -0.16014077 -0.22101007 -0.26812735
000260 25 2e b8 be 5b 3c a0 be 5b b8 d9 bd 79 56 c9 be
       -0.35972705 -0.31296048 -0.10630866 -0.39323786
000270 eb 26 60 be aa bd cb bd fd 92 34 be a7 46 df bd
       -0.21889846 -0.09948285 -0.17634197 -0.10902148
000280 c9 2f 3e be d2 47 ed bd b5 4e 51 be 34 e7 2e bd
       -0.18572916 -0.11585964 -0.2044018 -0.04270096
000290 52 18 7b bd 65 85 95 be a4 92 c1 be 95 ee 2a 3e
       -0.06130249 -0.29203334 -0.3780719 0.16692574
0002a0 65 a4 80 be fa 9a 8f bd d0 76 ed bd 28 53 85 bd
       -0.25125423 -0.07011981 -0.11594927 -0.065100014
0002b0 d9 90 0a bd b9 93 83 bd ff 7d a1 be 18 7c 3d be
       -0.033829544 -0.0642466 -0.3154144 -0.1850437
0002c0 2a ac 27 be bb 4e d5 be 96 66 1d be 5e 78 90 be
       -0.16374269 -0.4166163 -0.15371165 -0.28216833
0002d0 f3 04 6f be 38 d5 b6 be fe ed fa bd cd d5 59 bd
       -0.23341732 -0.35709548 -0.12252425 -0.053182412
0002e0 e5 d5 9a bd 4d 6e a8 be ab ca e5 3d 83 80 33 be
       -0.075603284 -0.32896653 0.112202965 -0.17529492
0002f0 73 81 7c be de 3f 61 be e2 6a 24 be 7a d4 88 be
       -0.24658756 -0.2199702 -0.16056398 -0.26724607

blocks.1.mlp.fc2.bias f4 [48]
000000 bf f5 47 3e 8e 67 b8 bd 0d 96 63 be 21 32 f0 3d
       0.19527338 -0.090041265 -0.22225209 0.11728311
000010 6d d4 c7 bc 09 9f f3 bd 04 8f 9f bd ce 73 d6 3d
       -0.024393285 -0.11895568 -0.0779095 0.10471307
000020 4e e4 e3 3d a7 5c f3 3a 5e ae 14 3f 94 3d 80 be
       0.1112753 0.0018567041 0.58078563 -0.2504698
000030 3e 08 cb 3c 09 5c e0 3d b7 b2 47 3d ad e3 80 3d
       0.024784204 0.10955054 0.04875442 0.06293426
000040 c1 ca 32 bc 0a 4c 89 3d af b9 21 3d a8 7d 15 be
       -0.010912598 0.067039564 0.039483722 -0.14598715
000050 cf 1f 59 3e 5c aa 3b be 91 f9 aa 3d 23 45 c0 3d
       0.2120354 -0.18326706 0.08348382 0.09388187
000060 20 01 04 3f a3 7f 29 3d 65 49 18 3e b0 72 77 bf
       0.51564217 0.04138149 0.14871748 -0.96659374
000070 bc db 59 bd 4a 90 5e 3e 40 02 08 be dc c6 76 3d
       -0.05318807 0.2173473 -0.13282108 0.06024824
000080 1d 7b ac bd f0 c7 31 be e7 f3 55 be c1 ad 25 3e
       -0.084219195 -0.17361426 -0.20893823 0.16179563
000090 78 74 da 3d d0 5b 18 bd 1a ba 08 be 14 09 0e bf
       0.10666746 -0.037196934 -0.13352242 -0.554826
0000a0 fa 72 2d 3d c1 49 e8 3b 45 65 58 bc ae 69 cc be
       0.04234598 0.0070888703 -0.013207738 -0.39924377
0000b0 04 11 2d be a6 2a a0 3d 71 05 d5 ba c8 b5 99 3e
       -0.16901022 0.078206345 -0.0016252232 0.300215

blocks.2.norm1.weight f4 [48]
000000 8b 45 19 3f 10 3e 2c 3f 7e b8 38 3f d9 df 4b 3f
       0.5987174 0.672822 0.7215651 0.7963844
000010 03 05 44 3f ac 67 46 3f c6 44 23 3f cf a4 5d 3f
       0.7657015 0.7750194 0.63776815 0.865796
000020 61 e3 3c 3f ff 64 1c 3f 60 28 1b 3f 01 f8 32 3f
       0.7378445 0.6109161 0.6060848 0.69909674
000030 b9 ed 2b 3f 5d d7 da 3e 03 2b 6d 3f 1b f3 06 3f
       0.6715961 0.42742434 0.92643756 0.527147
000040 bf 7b 44 3f 86 92 0e 3f f7 82 22 3f 11 8d 65 3f
       0.7675132 0.5569233 0.63481086 0.89668375
000050 c2 1e 32 3f 63 37 20 3f 15 5e 29 3f ce e4 41 3f
       0.6957818 0.62584513 0.6615918 0.75739753
000060 b9 c4 49 3f e4 b3 5c 3f fc b9 44 3f 5a b5 e1 3e
       0.788158 0.8621199 0.7684629 0.44083673
000070 b0 bc 28 3f dd 0b 35 3f 01 74 4a 3f 02 fa 5c 3f
       0.65912914 0.70721227 0.7908326 0.8631898
000080 e6 91 4e 3f 82 b5 1d 3f 77 db 12 3f e8 b2 34 3f
       0.80691373 0.61605084 0.57366127 0.7058549
000090 71 ad 4b 3f 26 79 26 3f 09 41 36 3f 73 71 25 3f
       0.79561526 0.6502861 0.71192986 0.64626235
0000a0 9e 6f 39 3f db ba 3a 3f 55 74 3a 3f 62 24 1a 3f
       0.7243594 0.7294137 0.7283376 0.60211766
0000b0 07 c8 4a 3f 01 31 71 3f 06 fc 30 3f ec eb 47 3f
       0.7921147 0.942154 0.6913456 0.78094363
